found 1 datasets in input train-data
/root/miniconda3/envs/fetchai/lib/python3.10/site-packages/torch_geometric/deprecation.py:26: UserWarning: 'data.DataListLoader' is deprecated, use 'loader.DataListLoader' instead
  warnings.warn(out)
4131 complexes in training dataset
516 complexes in validation dataset
PotentialNetParallel(
  (covalent_neighbor_threshold): GraphThreshold()
  (non_covalent_neighbor_threshold): GraphThreshold()
  (covalent_propagation): PotentialNetPropagation(
    (neighbor_threshold): GraphThreshold()
    (edge_network_nn): Sequential(
      (0): Linear(in_features=1, out_features=11, bias=True)
      (1): Softsign()
      (2): Linear(in_features=11, out_features=23, bias=True)
      (3): Softsign()
    )
    (edge_network): NNConv(23, 23, aggr=add, nn=Sequential(
      (0): Linear(in_features=1, out_features=11, bias=True)
      (1): Softsign()
      (2): Linear(in_features=11, out_features=23, bias=True)
      (3): Softsign()
    ))
    (gate): GatedGraphConv(23, num_layers=1)
    (attention): PotentialNetAttention(
      (net_i): Sequential(
        (0): Linear(in_features=46, out_features=23, bias=True)
        (1): Softsign()
        (2): Linear(in_features=23, out_features=128, bias=True)
        (3): Softsign()
      )
      (net_j): Sequential(
        (0): Linear(in_features=23, out_features=128, bias=True)
        (1): Softsign()
      )
    )
  )
  (non_covalent_propagation): PotentialNetPropagation(
    (neighbor_threshold): GraphThreshold()
    (edge_network_nn): Sequential(
      (0): Linear(in_features=1, out_features=64, bias=True)
      (1): Softsign()
      (2): Linear(in_features=64, out_features=128, bias=True)
      (3): Softsign()
    )
    (edge_network): NNConv(128, 128, aggr=add, nn=Sequential(
      (0): Linear(in_features=1, out_features=64, bias=True)
      (1): Softsign()
      (2): Linear(in_features=64, out_features=128, bias=True)
      (3): Softsign()
    ))
    (gate): GatedGraphConv(128, num_layers=1)
    (attention): PotentialNetAttention(
      (net_i): Sequential(
        (0): Linear(in_features=256, out_features=128, bias=True)
        (1): Softsign()
        (2): Linear(in_features=128, out_features=128, bias=True)
        (3): Softsign()
      )
      (net_j): Sequential(
        (0): Linear(in_features=128, out_features=128, bias=True)
        (1): Softsign()
      )
    )
  )
  (output): PotentialNetFullyConnected(
    (output): Sequential(
      (0): Linear(in_features=128, out_features=85, bias=True)
      (1): ReLU()
      (2): Linear(in_features=85, out_features=64, bias=True)
      (3): ReLU()
      (4): Linear(in_features=64, out_features=1, bias=True)
    )
  )
)
234788 trainable parameters.
234788 total parameters.
100%|█████████████████████████████████████████████████████████████████████████████████████████████████████████████████████| 16/16 [00:33<00:00,  2.08s/it]
epoch: 0	loss:36.7245	r2: -14.2905	 pearsonr: -0.4335	spearmanr: -0.5051	mae: 5.8582	pred stdev: 0.0028	 pred mean: 0.1080 	covalent_threshold: 1.5000 	non covalent threshold: 7.5000
…
