…
pdbbind
found 1 datasets in input train-data
/home/manvi-agrawal/miniconda3/envs/fetch-research-env/lib/python3.12/site-packages/torch_geometric/deprecation.py:26: UserWarning: 'data.DataListLoader' is deprecated, use 'loader.DataListLoader' instead
  warnings.warn(out)
8 complexes in training dataset
2 complexes in validation dataset
PotentialNetParallel(
  (covalent_neighbor_threshold): GraphThreshold()
  (non_covalent_neighbor_threshold): GraphThreshold()
  (covalent_propagation): PotentialNetPropagation(
    (neighbor_threshold): GraphThreshold()
    (edge_network_nn): Sequential(
      (0): Linear(in_features=1, out_features=10, bias=True)
      (1): Softsign()
      (2): Linear(in_features=10, out_features=20, bias=True)
      (3): Softsign()
    )
    (edge_network): NNConv(20, 20, aggr=add, nn=Sequential(
      (0): Linear(in_features=1, out_features=10, bias=True)
      (1): Softsign()
      (2): Linear(in_features=10, out_features=20, bias=True)
      (3): Softsign()
    ))
    (gate): GatedGraphConv(20, num_layers=2)
    (attention): PotentialNetAttention(
      (net_i): Sequential(
        (0): Linear(in_features=40, out_features=20, bias=True)
        (1): Softsign()
        (2): Linear(in_features=20, out_features=16, bias=True)
        (3): Softsign()
      )
      (net_j): Sequential(
        (0): Linear(in_features=20, out_features=16, bias=True)
        (1): Softsign()
      )
    )
  )
  (non_covalent_propagation): PotentialNetPropagation(
    (neighbor_threshold): GraphThreshold()
    (edge_network_nn): Sequential(
      (0): Linear(in_features=1, out_features=8, bias=True)
      (1): Softsign()
      (2): Linear(in_features=8, out_features=16, bias=True)
      (3): Softsign()
    )
    (edge_network): NNConv(16, 16, aggr=add, nn=Sequential(
      (0): Linear(in_features=1, out_features=8, bias=True)
      (1): Softsign()
      (2): Linear(in_features=8, out_features=16, bias=True)
      (3): Softsign()
    ))
    (gate): GatedGraphConv(16, num_layers=2)
    (attention): PotentialNetAttention(
      (net_i): Sequential(
        (0): Linear(in_features=32, out_features=16, bias=True)
        (1): Softsign()
        (2): Linear(in_features=16, out_features=12, bias=True)
        (3): Softsign()
      )
      (net_j): Sequential(
        (0): Linear(in_features=16, out_features=12, bias=True)
        (1): Softsign()
      )
    )
  )
  (output): PotentialNetFullyConnected(
    (output): Sequential(
      (0): Linear(in_features=12, out_features=8, bias=True)
      (1): ReLU()
      (2): Linear(in_features=8, out_features=6, bias=True)
      (3): ReLU()
      (4): Linear(in_features=6, out_features=1, bias=True)
    )
  )
)
9151 trainable parameters.
9151 total parameters.
Epoch 0
Length of train_dataloader: 1
  0%|                                                                                                                                    | 0/1 [00:00<?, ?it/s]Train.py#L223 len batch: 8
epoch: 0        loss:51.1134    r2: -10.0779     pearsonr: 0.5178       spearmanr: 0.3095       mae: 6.8246     pred stdev: 0.0349       pred mean: 0.3541    covalent_threshold: 1.5000       non covalent threshold: 4.5000
…
